app/models/importance_model.pth (torch, 549057 bytes, 5 tensors)

network.0.weight f4 [128, 1000]
0	0xb9a6beb3	-0.0003180407
1	0xbcfe6471	-0.031053754
2	0x3c5e98b7	0.013586215
3	0xbd09840e	-0.033573203
4	0xbce15860	-0.02750796
5	0x3bd70555	0.006561915
6	0x3ca0dcd2	0.019636545
7	0xbc76fd10	-0.015074983
8	0x3c80e18b	0.015732547
9	0x3d0c99f2	0.0343265
10	0xbcca1075	-0.02466605
11	0xbd0357aa	-0.032066025
12	0x3c82a408	0.015947357
13	0x3c9ccce7	0.019140674
14	0x3ccce7e2	0.025012914
15	0xbc0d7d27	-0.008635796
16	0x3cf116dd	0.029429847
17	0xbcb78ab7	-0.022405012
18	0xbc994170	-0.01870796
19	0x3c70d8a2	0.014700087
20	0xbcd7ad1b	-0.02632766
21	0xbc37394a	-0.011183092
22	0xbcc9cf60	-0.024635017
23	0xb93e3500	-0.00018139556
24	0x3cf02920	0.029316485
25	0x3c92eee2	0.017936174
26	0x3c1df2d7	0.009640417
27	0xbcfff2ed	-0.031243766
28	0x3c640da5	0.013919269
29	0x3b6b3d9a	0.0035894872
30	0x3b85adb1	0.0040795435
31	0xbc600744	-0.013673607
32	0xbc81e083	-0.015854126
33	0xbb836b1d	-0.0040105716
34	0x3bd1218c	0.006382173
35	0x3cd3225e	0.025773223
36	0x3d1fd20f	0.039018687
37	0x3a380fce	0.0007021398
38	0x3c093bf7	0.008376113
39	0x3b6b460c	0.0035899905
40	0x3c1c6d3e	0.00954753
41	0xbcbba531	-0.022905918
42	0x3cb4f30d	0.022088552
43	0xbc11779b	-0.008878614
44	0x3c20bea3	0.009811076
45	0x3cf0a916	0.029377501
46	0xbbdcc2de	-0.006737097
47	0x3bb534fd	0.0055299983
48	0x3c9bbb62	0.01901025
49	0x3cfef327	0.031121803
50	0x3c9d1b71	0.019178124
51	0x3cc3a782	0.023883585
52	0xbca427be	-0.020038482
53	0xbc933959	-0.017971681
54	0xbbbd0f4a	-0.005769645
55	0xbc39b6c1	-0.011335076
56	0xbc81debb	-0.015853276
57	0x3a8fbda7	0.0010966555
58	0x3cac80a5	0.021057436
59	0x3c141a06	0.009039408
60	0x3bb633a4	0.0055603553
61	0xbcb4121c	-0.021981291
62	0xbcbdc4c8	-0.023165122
63	0x3cfa7faa	0.030578453
64	0x3bda8bb4	0.006669486
65	0xbccc3ddb	-0.024931839
66	0x3cd922a2	0.026505772
67	0x3ca2b6f6	0.019862633
68	0xbadf38da	-0.0017030493
69	0x3ce1dc77	0.027570946
70	0x394db74e	0.0001961861
71	0xbcdd5557	-0.027018232
72	0x3c14f665	0.009091948
73	0xbcf0c5f3	-0.029391265
74	0x3cce400d	0.025177026
75	0x3c720e71	0.014773951
76	0xbc339c01	-0.010962487
77	0xbbe60863	-0.0070200427
78	0xbca17afa	-0.01971196
79	0x3b74a20f	0.003732804
80	0x3cf53c28	0.029935911
81	0xbceeb908	-0.029140964
82	0x3c5a8408	0.013337143
83	0xbc95ffc8	-0.018310443
84	0xbcc1c20a	-0.023652095
85	0xbcc69e55	-0.02424542
86	0xbc8dd74f	-0.017314581
87	0xbce24c8c	-0.027624391
88	0xbcc9eb69	-0.024648385
89	0xbcfed0a9	-0.031105356
90	0xbc8f7513	-0.01751188
91	0x3cb0f873	0.021602845
92	0xbc83385f	-0.01601809
93	0x3cb15b84	0.021650083
94	0x3cef1247	0.02918352
95	0xbce12fa2	-0.027488533
96	0xbca07a0e	-0.01958945
97	0xbc74124b	-0.0148969395
98	0xbcb77fb6	-0.022399765
99	0xbce5eda7	-0.028067423
100	0x3c669f9a	0.014076138
101	0x3c20bca9	0.009810605
102	0x3d12bc93	0.03582437
103	0xbbc09662	-0.005877302
104	0xbb50d515	-0.0031865288
105	0x3c3210f3	0.010868299
106	0xba761f59	-0.00093888264
107	0xbce8c220	-0.028412879
108	0x3ca27f35	0.019836048
109	0x3cd0c657	0.0254852
110	0xbc279da1	-0.010230453
111	0xbcd489e1	-0.025944652
112	0x3c9148e1	0.017734947
113	0x3c9427f8	0.018085465
114	0xbc9ae48a	-0.018907804
115	0xbbd96c27	-0.006635207
116	0xbcb1a0dd	-0.02168315
117	0xbbc4ac87	-0.006002012
118	0x3b67849c	0.0035326844
119	0xbc9d00f8	-0.019165501
120	0xbc69a123	-0.014259609
121	0x3bde0ecf	0.0067766677
122	0x3b316e4f	0.0027073806
123	0xbc111163	-0.008854243
124	0xbc8482d3	-0.016175663
125	0xbcc5069e	-0.024051007
126	0x3b9cb60b	0.0047824434
127	0x3ca9ec11	0.020742448
128	0x3b7d4c3e	0.003865018
129	0xba94083a	-0.0011293956
130	0xbbb246bf	-0.0054405625
131	0x3ca704a7	0.02038796
132	0xbcacec3f	-0.021108745
133	0xbc093ac1	-0.008375824
134	0xbcdc8962	-0.026920978
135	0xbc92d5e6	-0.01792426
136	0x3c784540	0.015153229
137	0xbc270eee	-0.010196431
138	0x3c3b3fbb	0.011428769
139	0xbcd54f95	-0.026038924
140	0x3b8bb709	0.004263763
141	0x3a71a12f	0.00092174386
142	0xbcb19d07	-0.021681322
143	0x3c56ac7e	0.013102649
144	0xbc8d202f	-0.01722726
145	0x3c848941	0.016178729
146	0x3ca096a6	0.019603085
147	0xbcadd912	-0.021221671
148	0xbc780663	-0.015138241
149	0xbab75d99	-0.0013989686
150	0xbc23b664	-0.009992216
151	0xbb2b1cc1	-0.0026109668
152	0xbceb2620	-0.028704703
153	0xbc8e9b14	-0.017407931
154	0xbc6d1f7d	-0.014472839
155	0xbc7d7a46	-0.015471047
156	0x3c8dae09	0.0172949
157	0xbcb89fac	-0.022537075
158	0xbbcfad79	-0.006337818
159	0x3bfc1bff	0.007693767
160	0xbc170f15	-0.009219904
161	0xbc54f0d7	-0.012996874
162	0xbc95faf5	-0.018308142
163	0xbb65c6da	-0.0035061152
164	0xbb9e043f	-0.0048222835
165	0xbb8ce86f	-0.004300169
166	0xbc34707f	-0.011013149
167	0x3cdc2143	0.02687133
168	0xbb16e55f	-0.00230249
169	0xbc6fd13f	-0.0146372905
170	0xbcbd4a2c	-0.023106657
171	0xbc99d4d4	-0.018778242
172	0xbc73a268	-0.014870264
173	0xbcdcd3c4	-0.026956446
174	0x3c8a9a4b	0.016919276
175	0xbce91b4b	-0.028455397
176	0x3c7f56c2	0.0155846495
177	0xbc5fd607	-0.013661868
178	0xbc1780c8	-0.009247012
179	0xbb7fef72	-0.0039052633
180	0xbcbaef2c	-0.022819124
181	0x3b9cf60c	0.0047900733
182	0xbc7ddd15	-0.015494605
183	0xbc878f31	-0.016547771
184	0xbcba2437	-0.022722347
185	0xbcf96cf0	-0.030447453
186	0x3c8e5240	0.017373204
187	0xbcd9d7c2	-0.02659214
188	0x3cc2bbe9	0.023771243
189	0x3d1195c4	0.03554322
190	0x3c1c35df	0.009534328
191	0x3ce01199	0.027352141
192	0x3cd70ba6	0.026250672
193	0x3c139fb5	0.009010245
194	0x3b6c04cc	0.0036013601
195	0x3b10782d	0.0022044287
196	0xbcbf685c	-0.023365192
197	0x3d03ed69	0.032208834
198	0xbcbb72e8	-0.02288194
199	0xba8c1caa	-0.0010689695
200	0x3cd94367	0.026521398
201	0xbcdce697	-0.026965423
202	0xbced22c9	-0.02894725
203	0xbcdc6a70	-0.026906222
204	0xbce227ae	-0.027606811
205	0xbcd8a47e	-0.026445623
206	0xbcefe07a	-0.029281843
207	0xbd191525	-0.03737368
208	0xbd0775b9	-0.033071253
209	0x3cae50e8	0.021278813
210	0xbb42cc71	-0.0029723907
211	0xbc51fe22	-0.012816938
212	0xbc86dfad	-0.016464079
213	0xbd005a70	-0.031336248
214	0xbcbf233f	-0.023332236
215	0x3d2c390a	0.042046584
216	0x3d0eda87	0.034876373
217	0x3d133be1	0.035945777
218	0xbbfb3f94	-0.007667491
219	0x3cea5f77	0.028609974
220	0xbbf84e6c	-0.007577708
221	0x3d215e2a	0.039396442
222	0x3bbfbdda	0.0058514895
223	0xba935225	-0.0011239691
224	0xbb9e750b	-0.00483573
225	0xbbd8cb5f	-0.0066160406
226	0x3d16e36f	0.03683799
227	0xbcbeeef4	-0.023307301
228	0x3c6f41de	0.014603106
229	0xbc98fb68	-0.018674567
230	0x3c73c07c	0.014877435
231	0x3d0db879	0.034599755
232	0x3bdc4010	0.006721504
233	0xbcf93e1a	-0.03042512
234	0x3cc78a26	0.024357866
235	0xbcef238b	-0.029191753
236	0xbce12bf7	-0.027486784
237	0x3b6d7290	0.0036231615
238	0xbc387138	-0.011257462
239	0xbd01e167	-0.0317091
240	0xbb2f28bd	-0.0026727163
241	0xbc0b702f	-0.008510633
242	0x3b308c6f	0.0026939174
243	0xbd0a9d73	-0.03384156
244	0xbc97974e	-0.018504765
245	0xbc852696	-0.01625375
246	0xbc1e17ff	-0.009649276
247	0xbcf62d8a	-0.030051012
248	0xbc77ab05	-0.015116458
249	0xbc88f481	-0.016718151
250	0x3c7a9cd0	0.015296176
251	0xbceffb5e	-0.029294666
252	0xbc63c9d7	-0.013903103
253	0xbbd7ddeb	-0.006587734
254	0xbcc5239e	-0.024064835
255	0x3bfb4127	0.007667679

network.0.bias f4 [128]
0	0x3c1529c5	0.009104197
1	0xbc546442	-0.012963356
2	0x3aa4920c	0.0012555732
3	0x3ce5c9f6	0.028050404
4	0x3c846fbe	0.016166564
5	0xbcbaecb9	-0.022817956
6	0xbc73824b	-0.014862607
7	0x3bfad8cd	0.007655239
8	0x3ba36f3a	0.0049876245
9	0x3c266f0b	0.010158311
10	0xbc27a0c2	-0.010231199
11	0x3ce1cbbc	0.027562968
12	0x3d04c755	0.03241666
13	0x3c2ebdeb	0.010665397
14	0xbd136336	-0.035983287
15	0x3c2fd2bd	0.010731396
16	0x3a0d226a	0.0005383851
17	0x3c6269be	0.013819156
18	0x3d1ff4fe	0.039052002
19	0x3c835695	0.016032496
20	0x3d0afd9f	0.03393328
21	0x3d151666	0.036398314
22	0x3ca17475	0.019708851
23	0xbc60f540	-0.013730347
24	0xbc9b3641	-0.018946769
25	0x3cba2df8	0.022726998
26	0x3cbdac0a	0.023153324
27	0x3c873fe7	0.016509963
28	0x3ba0d606	0.004908326
29	0x3cb949db	0.022618225
30	0xbb227a52	-0.0024792147
31	0x3bf06206	0.007335904
32	0x3d423a3d	0.04741882
33	0xbc672eb3	-0.014110255
34	0xbd001a75	-0.03127523
35	0x3c9b2a74	0.018941142
36	0x3c0943ab	0.00837795
37	0x3b87370e	0.004126436
38	0x3d0434b6	0.03227683
39	0x3cbfee33	0.023429012
40	0x3b61ff1d	0.0034484335
41	0x3cb52b4a	0.022115368
42	0x3d4c9f9c	0.049956903
43	0x3d0107d9	0.031501625
44	0x3c8aa17f	0.01692271
45	0x3cf22513	0.029558694
46	0x3bde1060	0.0067768544
47	0x3d1bf4b4	0.038075164
48	0x3b7ede38	0.0038889777
49	0x3d2df1ae	0.04246681
50	0xbbe5b476	-0.007010038
51	0x3c3da10a	0.011574039
52	0x3d10c716	0.035346113
53	0x3c9c6aca	0.01909389
54	0x3d13601d	0.035980333
55	0xbb378f34	-0.002800894
56	0xbb8fd65e	-0.004389568
57	0x3cb2e7fa	0.02183913
58	0x3cbfa091	0.023391994
59	0xbad46301	-0.0016203822
60	0x3d0d88c7	0.03455427
61	0x3cb0d03d	0.02158367
62	0x3bef885f	0.007309958
63	0x3cec28ae	0.028827991
64	0xbceefa17	-0.029171987
65	0x3c914237	0.017731769
66	0x3c0d322c	0.008617919
67	0x3ba43d3f	0.005012184
68	0x3d2e8a37	0.04261228
69	0x3bf5fa57	0.0075066495
70	0xbb55e58e	-0.0032638046
71	0x3d35c34b	0.0443757
72	0x3cab9e31	0.020949455
73	0x3bfe61dc	0.0077631306
74	0x3d431be5	0.047634024
75	0x3b6890da	0.003548673
76	0x3ce7f480	0.028314829
77	0xbb0d9110	-0.0021601357
78	0xbd06db25	-0.032923836
79	0x3bdb9d16	0.0067020757
80	0x3d324e6b	0.043531816
81	0x3d1fe72a	0.039038815
82	0x3c3f0e81	0.011661173
83	0x3c304806	0.010759359
84	0x3aeaca83	0.0017913136
85	0xbb5d0e11	-0.0033730308
86	0x3cf0029a	0.029298116
87	0x3b8aa32f	0.004230879
88	0x3c995cac	0.018720947
89	0xbc58229f	-0.013191848
90	0x3a2d256e	0.0006605004
91	0x3b72ebf1	0.0037066902
92	0x3c447872	0.011991607
93	0x3b18431c	0.002323336
94	0x3d0bf809	0.03417209
95	0x3d43bbca	0.04778651
96	0x3cccf949	0.025021212
97	0xbc83cded	-0.016089404
98	0xbbfc18b0	-0.0076933727
99	0x3ccfb06f	0.025352685
100	0x3ce93eb1	0.028472276
101	0x3d12f202	0.035875328
102	0x3a8bf00e	0.00106764
103	0xbbbf2c1f	-0.005834117
104	0x3ce3722a	0.027764399
105	0x3c4e5271	0.012592898
106	0x3d38e267	0.04513779
107	0x3c3c5adb	0.011496271
108	0x3b9be90a	0.004758005
109	0x3d1240b2	0.03570623
110	0xbcc026a4	-0.023455925
111	0x3ccffaac	0.025388084
112	0xbd09fd14	-0.03368862
113	0x3c1616d1	0.009160713
114	0x3bc887bb	0.006119696
115	0x3cf97f44	0.030456193
116	0x3c436b15	0.011927386
117	0xbb11c806	-0.0022244467
118	0x3d31e781	0.04343367
119	0x3c297005	0.010341649
120	0x3c2fab65	0.010722016
121	0x3c815b9f	0.015790759
122	0x3d0ffa90	0.035151064
123	0x3c18e547	0.009332008
124	0xbb04ef2b	-0.0020284157
125	0x3c74cc2b	0.014941256
126	0x3d00a788	0.03140977
127	0x3bf0b7d6	0.0073461337

network.3.weight f4 [64, 128]
0	0x3d93063b	0.07178923
1	0x3d81792b	0.06321939
2	0xbd5a8540	-0.053349733
3	0x3d10e525	0.03537478
4	0xbc8594ce	-0.016306307
5	0x3cefc4ec	0.029268704
6	0xbca1a432	-0.019731615
7	0x3c02867d	0.007966635
8	0xbd8c21ba	-0.0684237
9	0xbd96242b	-0.07331117
10	0xbc833898	-0.016018197
11	0xbd66aab3	-0.056315135
12	0x3acec705	0.0015775865
13	0x3d535d85	0.05160286
14	0xbc074db0	-0.008258268
15	0x3cd9151c	0.026499324
16	0xbd8818fb	-0.0664539
17	0xbd4ccaaf	-0.04999798
18	0x3d94bc7e	0.072625145
19	0x3d2327cd	0.03983288
20	0xbb1213be	-0.00222896
21	0x3d81a6b8	0.06330627
22	0x3c28b2f4	0.010296572
23	0x3daa2d1d	0.08309386
24	0xbc9dd19d	-0.01926499
25	0xbd965547	-0.07340484
26	0x3daab627	0.08335524
27	0x3d8a8c9c	0.067651
28	0x3c8d7498	0.01726751
29	0x3d196acb	0.03745536
30	0x3c7c2900	0.015390635
31	0xbd4c9386	-0.049945377
32	0xbc94c459	-0.018160032
33	0xbd7be966	-0.061501883
34	0x3d3abf83	0.045592796
35	0xbb582dce	-0.0032986286
36	0x3bc69dd9	0.0060612974
37	0xbd0ed307	-0.03486922
38	0x3d363cf7	0.044491734
39	0xbd98bb8f	-0.07457649
40	0x3d4ad5c7	0.04952028
41	0xbdbf67ec	-0.093459934
42	0xbd1e50ff	-0.038651463
43	0x3cfc0f38	0.030768976
44	0x3c98c565	0.018648813
45	0x3c5ef42e	0.013608022
46	0x3bd9d18e	0.0066472953
47	0x3cf77e40	0.030211568
48	0xbd68350a	-0.056691207
49	0x3bf2d480	0.007410586
50	0x3d8e9ed5	0.069638886
51	0xbd226f6e	-0.03965705
52	0x3d08d609	0.033407245
53	0xbca52f33	-0.020164108
54	0xbd48fa9c	-0.049067125
55	0xbc8624f9	-0.016375052
56	0x3b665cad	0.0035150454
57	0xbcf65831	-0.03007135
58	0x3d159773	0.036521386
59	0xbb83be7f	-0.0040205116
60	0x3d8386e3	0.06422212
61	0x3cc12a16	0.023579638
62	0xbd0efdd8	-0.034910053
63	0x3b976980	0.004620731
64	0x3b23e577	0.0025008598
65	0xbd4d8b9b	-0.050181966
66	0xbdc346e3	-0.09535005
67	0xbda8941b	-0.08231374
68	0x3da531ec	0.080661625
69	0x3cb81ad2	0.022473726
70	0x3c98f5b2	0.018671844
71	0x3c1dcd6b	0.009631495
72	0xbb6c1196	-0.0036021224
73	0xbb21901a	-0.0024652542
74	0xbd268413	-0.0406533
75	0xbd02c9c1	-0.03193069
76	0x3d2f4a0e	0.042795233
77	0xbd57674d	-0.05258875
78	0x3d4aff46	0.049559854
79	0x3db335b7	0.0875048
80	0x3d8ccb03	0.06874659
81	0xbdaa48ce	-0.08314668
82	0xbd6e9f2f	-0.058257278
83	0x3d6b5c14	0.05746086
84	0xbc201f27	-0.009773052
85	0xbb5b1358	-0.0033428278
86	0xbc3a69fd	-0.011377809
87	0xbcaaeb6a	-0.020864207
88	0x3d015704	0.031577125
89	0x3d9f4c9a	0.077782825
90	0x3bf3184a	0.007418667
91	0xbb1b8186	-0.0023728325
92	0x3c288f2f	0.010288044
93	0x3d405516	0.046956144
94	0x3d55fbdf	0.052242156
95	0x3ce84ca1	0.028356852
96	0x3cf279ef	0.029599158
97	0xbda4a30c	-0.08038911
98	0x3d592d4f	0.053021725
99	0xbd0be01d	-0.034149278
100	0x3d08be7c	0.033384785
101	0xbc079004	-0.008274082
102	0x3d90f86c	0.07078633
103	0xbdbdd330	-0.092687964
104	0x3d6bdde5	0.057584662
105	0xbd314f38	-0.04328844
106	0x3dcb5c02	0.099296585
107	0xbd474992	-0.048654146
108	0xbbc3b5e0	-0.005972609
109	0x3cfdba60	0.03097266
110	0x3bb6d1c8	0.005579207
111	0xbda9a6dc	-0.08283779
112	0xbd9f3572	-0.07773866
113	0x3d15bf98	0.03655967
114	0xbcbc75d6	-0.023005407
115	0x3cd58087	0.026062263
116	0x3d8d720d	0.06906519
117	0x3d007a09	0.03136638
118	0xbc1b1bbc	-0.009467062
119	0xbd2f1a90	-0.04274994
120	0xbdbd673a	-0.092482045
121	0xbd5f108f	-0.05445915
122	0xbd02279b	-0.031776052
123	0x3db921c9	0.09039647
124	0x3da65a72	0.0812272
125	0xbd8c4645	-0.0684934
126	0x3d082b31	0.033244316
127	0x3dd9b3cb	0.10629996
128	0x3d8b5b65	0.068045415
129	0xbda625b1	-0.08112658
130	0x3d4dd13b	0.050248366
131	0x3d8f884d	0.07008419
132	0x3d1e4c4e	0.03864699
133	0xbce1a900	-0.027546406
134	0xbdc4f37c	-0.096167535
135	0x3daef3de	0.08542608
136	0xbd1955ba	-0.03743527
137	0x3cda82fc	0.026673786
138	0x3dd5a4a2	0.10431792
139	0xbd0a697a	-0.033791997
140	0xbd63f600	-0.055654526
141	0xbcd341a7	-0.025788141
142	0xbd755bf5	-0.05990215
143	0x3d110637	0.035406318
144	0xbd445835	-0.047935683
145	0xbcb9a870	-0.022663325
146	0x3c1126e9	0.008859375
147	0xbcafa171	-0.021439286
148	0x3da1871e	0.078871
149	0xbdc795fa	-0.09745403
150	0xbd856fe3	-0.06515481
151	0x3d01fca8	0.031735092
152	0xbd9baced	-0.07601342
153	0x3a8fed2a	0.0010980715
154	0xbdb9f906	-0.090807006
155	0xbc7d1782	-0.015447499
156	0x3dcf4e7c	0.101223916
157	0x3d643b5a	0.055720665
158	0xbc8c7ae9	-0.017148452
159	0x3d081b6c	0.033229277
160	0x3d506320	0.050875783
161	0xbd8d19e7	-0.06889706
162	0x3d906565	0.070505895
163	0x3dbb859f	0.091563456
164	0xbd847bb8	-0.0646891
165	0xbdbb8bdb	-0.09157535
166	0xbdaf61b6	-0.08563559
167	0x3ddbc1d5	0.1073033
168	0xbbc76d4c	-0.0060860272
169	0x3c840082	0.016113523
170	0x3dcd7950	0.10032904
171	0x3d139ed4	0.036040142
172	0xbd94d6fa	-0.07267566
173	0x3dbd4a6a	0.09242709
174	0x3cea9e84	0.02864004
175	0x3db4853e	0.088144764
176	0xbd8300a5	-0.06396607
177	0x3d7bc514	0.061467245
178	0x3d082643	0.033239614
179	0xbd8b7885	-0.06810097
180	0xbd1fd8bc	-0.039025053
181	0xbd33a5f8	-0.043859452
182	0x3dd6068f	0.1045047
183	0xbae733d5	-0.0017639349
184	0x3b9434e0	0.0045229048
185	0xbd8da9da	-0.06917162
186	0x3db59fa0	0.08868337
187	0xbc82ebd4	-0.015981592
188	0xbda2e013	-0.07952895
189	0xbd0b2985	-0.033975143
190	0x3b2945be	0.0025828923
191	0xbd5dfdbc	-0.054197058
192	0x3d9b0ba8	0.07570583
193	0xbcfa3850	-0.03054443
194	0x3d2a110f	0.041520175
195	0xbd7e99ce	-0.0621584
196	0x3d267d11	0.040646616
197	0xbdbf5d65	-0.093439855
198	0xbd39e2f3	-0.04538245
199	0xbd9947e4	-0.07484415
200	0x3cda5fab	0.026656946
201	0xbd472dc1	-0.04862762
202	0xbd31c509	-0.043400798
203	0x3d7a333e	0.061084025
204	0x3d2b11b3	0.041764926
205	0x3ca62be9	0.02028461
206	0x3d635652	0.055502243
207	0x3d848096	0.06469838
208	0x3d4699a3	0.048486363
209	0x3d472555	0.048619587
210	0xbdb95d06	-0.09050946
211	0x3a0c9c5a	0.00053638744
212	0x3d4f6fa7	0.05064359
213	0x3d6da070	0.058014333
214	0xbda35cf2	-0.07976712
215	0x3c4e0d8c	0.012576472
216	0x3d52e762	0.051490195
217	0xbdae2ad4	-0.085042626
218	0x3bc1e271	0.0059168865
219	0x3d61360e	0.05498319
220	0xbd7a8420	-0.06116116
221	0x3dd5a406	0.104316756
222	0x3c68a7f2	0.0142001975
223	0xbd75c407	-0.0600014
224	0xbc8f4961	-0.017491044
225	0x3d0727aa	0.03299681
226	0x3dc8ad03	0.09798624
227	0x3c667a15	0.014067193
228	0xbcfc2e83	-0.030783897
229	0xbd0d0998	-0.034432977
230	0x3cf0b0e0	0.029381216
231	0xbbad6d54	-0.005292574
232	0x3d0f7db1	0.035031978
233	0xbd896be7	-0.06710034
234	0x3d03507d	0.03205918
235	0xbd752111	-0.059845988
236	0xbd65a85c	-0.056068763
237	0xbcc3befb	-0.023894778
238	0x3a0cb137	0.0005366983
239	0x3c26be11	0.010177151
240	0x3d9bc1b8	0.07605308
241	0x3d86f523	0.06589725
242	0xbd7b9668	-0.061422735
243	0x3c42d4e9	0.011891582
244	0x3b332cbb	0.0027339894
245	0x3d80ddc8	0.062923014
246	0xbd8919ce	-0.06694375
247	0x3d843bd8	0.06456727
248	0xbc081cd0	-0.008307651
249	0xbd2c9f72	-0.042144246
250	0xbc5abbbb	-0.0133504225
251	0x3d8a13a5	0.06742028
252	0x3ca3935f	0.019967733
253	0x3d3815f8	0.044942826
254	0xbdbbd676	-0.091717646
255	0xbccdeac9	-0.025136368

network.3.bias f4 [64]
0	0x3c39c448	0.011338301
1	0x3caa968c	0.02082374
2	0x3d02ccb8	0.031933516
3	0xbda0bbd6	-0.07848327
4	0x3d738f95	0.059463102
5	0xbdb12258	-0.08649129
6	0xbd46cac5	-0.04853322
7	0xbcfaaa8e	-0.030598905
8	0x3c292b12	0.01032521
9	0x3d849d3a	0.06475301
10	0x3dbd0ea4	0.09231308
11	0x3bf57c79	0.007491645
12	0x3d4b0cd4	0.04957278
13	0xbda56814	-0.08076492
14	0xbd8d06f6	-0.06886093
15	0x3d9396d1	0.072065
16	0xbd37e6f8	-0.044898003
17	0xbd48bf72	-0.0490107
18	0x3d9d5cde	0.07683729
19	0xbd415498	-0.047199816
20	0x3d0de0a9	0.03463808
21	0xbd24f317	-0.04027089
22	0xbd3d4d1f	-0.046216127
23	0xbcb04421	-0.021516861
24	0x3d2180db	0.039429527
25	0xbd5e4257	-0.054262485
26	0xbdb4180a	-0.087936476
27	0xbc4666fa	-0.012109512
28	0x3d59598d	0.053063918
29	0xbd7a3b13	-0.061091494
30	0xbd7b6cde	-0.06138312
31	0x3ddac126	0.106813714
32	0xbd8e48de	-0.06947492
33	0x3d6189aa	0.055062927
34	0xbd464efc	-0.04841517
35	0xbda8ebe4	-0.082481176
36	0x3c8accb6	0.016943317
37	0x3dc3fd16	0.09569757
38	0x3cd3e458	0.025865719
39	0xbc472087	-0.012153751
40	0xbdaed217	-0.08536165
41	0x3dddb8f3	0.10826292
42	0xbbf51ab7	-0.0074799913
43	0x3dc53aa7	0.09630328
44	0xbd46b57b	-0.048512917
45	0x3dcc3827	0.09971648
46	0xbd9e78ba	-0.077378705
47	0x3dc312ad	0.095250465
48	0xbcc6af22	-0.024253432
49	0x3d53cfbd	0.051711787
50	0xbd673165	-0.05644359
51	0xbcd24f00	-0.025672436
52	0x3c85a109	0.01631214
53	0x3d46b09a	0.048508264
54	0x3d1cee26	0.038313054
55	0x3d954738	0.072889745
56	0xbc4fa222	-0.012672933
57	0x3d4f81dd	0.050660957
58	0xbd8a8b59	-0.0676486
59	0xbdafac8e	-0.08577834
60	0xbd9223b1	-0.07135714
61	0x3d543495	0.05180796
62	0xbda04baa	-0.07826932
63	0x3c4f6a46	0.012659615

network.5.weight f4 [1, 64]
0	0x3d23a330	0.03995055
1	0xbdc179f7	-0.09447091
2	0x3c057148	0.008144684
3	0x3c9c2ab8	0.019063339
4	0xbdc5506a	-0.096344784
5	0xbdd59a92	-0.104298726
6	0x3a11b319	0.00055579987
7	0x3c846736	0.016162496
8	0xbd39a852	-0.04532654
9	0x3d970b57	0.0737521
10	0x3d1a5e00	0.0376873
11	0x3e0675bd	0.13130851
12	0xbd916fa7	-0.07101374
13	0x3d97c3fa	0.074104264
14	0x3d4501d6	0.048097454
15	0xbd3afc28	-0.04565063
16	0x3dcfb904	0.10142711
17	0x3debc923	0.11512973
18	0x3da7cb54	0.08193079
19	0xbdb69b3b	-0.089163266
20	0xbd790e96	-0.060804926
21	0x3d944a60	0.072407484
22	0xbcea5352	-0.028604183
23	0x3cab81b1	0.020935865
24	0xbc9b93e8	-0.018991426
25	0xbd8757f6	-0.06608574
26	0x3d632b00	0.05546093
27	0xbc9c6b23	-0.019094056
28	0xbcf7f0cf	-0.030266194
29	0xbdd07b19	-0.10179729
30	0xbd38b551	-0.04509479
31	0x3dd9db4c	0.10637531
32	0xbde3bb6b	-0.111197315
33	0x3cfbaa2f	0.030720798
34	0x3d1f84a6	0.038944863
35	0x3d46556f	0.04842132
36	0xbd7373a4	-0.059436455
37	0x3d17706b	0.036972445
38	0x3d0f1843	0.034935247
39	0x3db30847	0.08741813
40	0xbdb87890	-0.090073705
41	0x3d28a338	0.041171283
42	0x3d91f0e6	0.07126026
43	0x3d731f50	0.059356034
44	0x3cb122a8	0.02162297
45	0x3d3b2123	0.0456859
46	0x3be725f4	0.007054085
47	0x3de5fbb3	0.112296484
48	0x3db91bd2	0.090385094
49	0xbdd33911	-0.10313619
50	0x3c612588	0.013741858
51	0x3de05816	0.10954301
52	0x3d8fca25	0.07020978
53	0x3dbda84c	0.09260616
54	0xbd7501fa	-0.059816338
55	0xbe068e1b	-0.13140146
56	0xbdc1b5e8	-0.09458524
57	0x3d301880	0.042992115
58	0x3dbb7831	0.09153784
59	0xbccbb0c0	-0.024864554
60	0xbdcbf6d6	-0.099591896
61	0x3dcdffb5	0.10058538
62	0x3dde000b	0.10839852
63	0xbda6adb4	-0.081386
